src/solution/a2d.pt (torch, 5907 bytes, 4 tensors)

weight f4 [128, 4]
0	0xbe2634ab	-0.16231029
1	0x3e87d378	0.26528525
2	0x3f672cc3	0.90302676
3	0x3e5c4b79	0.21513166
4	0x3ea730a0	0.32654285
5	0xbe32fb54	-0.17478687
6	0x3f1522a1	0.58255965
7	0xbe324fdb	-0.17413275
8	0x3c68de6b	0.014213185
9	0x3e277652	0.1635373
10	0x3f47fbcf	0.78118604
11	0x3f362c9a	0.71161807
12	0xbe9bf2c5	-0.30458656
13	0xbe6cd5d3	-0.23128442
14	0x3f00c486	0.5029987
15	0xbcfcd8b5	-0.030865053
16	0xbd2651a2	-0.040605195
17	0xbe958dd9	-0.29209784
18	0xbe2206eb	-0.15822951
19	0xbe6daa12	-0.23209408
20	0x3ed437c2	0.4144879
21	0x3e43665f	0.1908202
22	0x3f548402	0.8301393
23	0x3f0c9397	0.54912704
24	0x3e300821	0.17190601
25	0xbebd04af	-0.36917636
26	0x3d8dea63	0.06929471
27	0x3ed4f5b3	0.41593704
28	0x3e40144d	0.18757744
29	0x3e8196ee	0.25310463
30	0x3f1eb224	0.6199057
31	0x3f39d507	0.7259068
32	0x3e6b96ff	0.23006819
33	0x3eec8ad5	0.4619967
34	0x3ec978c0	0.39349937
35	0x3f1f62ea	0.62260306
36	0xbe302842	-0.17202857
37	0xbdcb3496	-0.09922139
38	0x3e7c45ac	0.24635953
39	0x3ed81627	0.422044
40	0xbeb5463c	-0.35405147
41	0xbe88593f	-0.2663059
42	0x3e6a99bf	0.22910212
43	0x3f34cadf	0.70622057
44	0xbe7a9d63	-0.24474101
45	0xbe7be79b	-0.24600069
46	0x3daa292a	0.08308633
47	0xbeb8c10b	-0.3608478
48	0x3ed1e784	0.40996945
49	0xbd0b458d	-0.034001876
50	0xbf33c66a	-0.7022463
51	0xbeeb0f3e	-0.45910066
52	0x3d0886e0	0.03333175
53	0x3ecb1335	0.3966309
54	0x3e7563dc	0.23963875
55	0xbbb7baf4	-0.0056070033
56	0x3eab2be6	0.3343193
57	0xbd52c9a9	-0.05146185
58	0xbf5fe849	-0.87463814
59	0xbe81de8b	-0.253651
60	0xbdfaaf9b	-0.12240525
61	0xbe0de0ab	-0.13855235
62	0xbf7ed846	-0.9954876
63	0x3db83223	0.08993938
64	0x3c2e2a6b	0.01063023
65	0xbe5ee718	-0.21767843
66	0x3e935ec2	0.28783232
67	0xbe8a2ebf	-0.2698879
68	0xbeee9b11	-0.4660268
69	0x3ed71770	0.4201007
70	0xbf1121a9	-0.56691986
71	0xbf154b04	-0.5831759
72	0x3ece727c	0.4032172
73	0x3eb39ec6	0.35082072
74	0xbe9d09f7	-0.30671665
75	0xbdabdfd8	-0.08392304
76	0x3d831228	0.063999474
77	0x3e693951	0.2277577
78	0x3e5df0a8	0.21673834
79	0x3e2ee4bf	0.17079447
80	0x3e11a2a8	0.14222205
81	0xbb72a0b9	-0.0037022068
82	0xbf48cfea	-0.7844225
83	0xbec2b0b1	-0.3802543
84	0x3e86e03d	0.26342955
85	0x3ef89cec	0.48557222
86	0xbe020508	-0.12697232
87	0xbe4ad6dc	-0.19808525
88	0xbeacc257	-0.3374202
89	0x3ec247d9	0.3794544
90	0xbf556d76	-0.8337015
91	0xbf110519	-0.56648403
92	0xbe61cf23	-0.22051673
93	0xbe5703a5	-0.20997484
94	0xbf80f822	-1.0075724
95	0xbf15ae71	-0.584693
96	0xbd9b0fec	-0.07571396
97	0x3e8f3b35	0.2797486
98	0x3f38a9f3	0.7213432
99	0x3edd6efb	0.43248734
100	0x3ef41233	0.47670135
101	0xbeb05d29	-0.34446076
102	0xbef13302	-0.47109228
103	0xbe25a2d1	-0.16175391
104	0x3db72475	0.089425005
105	0x3ee00e5c	0.43760955
106	0x3e02065d	0.1269774
107	0xbeb4fba4	-0.35348237
108	0x3c8dad0c	0.01729443
109	0x3da75750	0.081709504
110	0x3ece9c52	0.40353638
111	0x3ee4d278	0.44691825
112	0xbe4ef99d	-0.20212407
113	0x3e923c8d	0.28561822
114	0x3e79617b	0.24353592
115	0x3eed4658	0.4634273
116	0x3e554416	0.20826754
117	0xbc935221	-0.017983498
118	0x3e9e7eae	0.30956024
119	0x3dec6a2b	0.115436874
120	0xbd3cea21	-0.04612172
121	0x3e092e58	0.13396585
122	0xbe794ac5	-0.24344929
123	0xbf05ead6	-0.52311456
124	0x3ee2c147	0.44288084
125	0x3e9dec95	0.3084456
126	0x3e0cab27	0.13737164
127	0x3f197747	0.5994763
128	0x3dd72fd3	0.105071686
129	0xbd9c2f32	-0.07626189
130	0x3eb6b84d	0.35687485
131	0x3e597520	0.21236086
132	0x3d8eaa3a	0.06966062
133	0xbe0e10ad	-0.13873549
134	0x3d75a4b3	0.059971523
135	0xbe8dbcc8	-0.2768309
136	0xbd15ebcf	-0.036601838
137	0x3ef3d379	0.47622278
138	0xbea70a6b	-0.32625136
139	0x3de11aea	0.109914616
140	0x3edb8dfa	0.42881757
141	0x3bdf0e95	0.0068071582
142	0x3f15e4ae	0.5855206
143	0x3e7e29dd	0.24820657
144	0x3ebad0ce	0.3648743
145	0x3e2c0900	0.16800308
146	0xbeb9d4bb	-0.36295113
147	0xbf25e317	-0.64799637
148	0xbe342886	-0.17593583
149	0xbe15b4cf	-0.14619754
150	0xbf5254a6	-0.82160413
151	0xbea78e0e	-0.32725567
152	0xbec07ff1	-0.37597612
153	0x3e9c5307	0.30532095
154	0xbf375ebb	-0.7162892
155	0xbe9912cd	-0.29897156
156	0xbec707e2	-0.38873202
157	0x3eb26a33	0.3484665
158	0xbf016de6	-0.50558317
159	0xbf0f905e	-0.5607966
160	0x3c7e0165	0.015503262
161	0x3ecac57d	0.39603797
162	0xbe9ef818	-0.31048656
163	0xbd802012	-0.06256117
164	0xbe1016a7	-0.14071141
165	0x3db58cab	0.08864721
166	0x3ecb2180	0.39673996
167	0x3f1aa28c	0.60404277
168	0x3ec01ed9	0.37523535
169	0xbe29c711	-0.16579844
170	0xbea577da	-0.32318002
171	0xbe5c5be0	-0.21519423
172	0x3dd9469b	0.1060917
173	0xbe9570af	-0.29187533
174	0xbf60bbe9	-0.8778673
175	0xbf1947d3	-0.5987522
176	0xbe8d0292	-0.27541023
177	0x3e1cb6f0	0.1530416
178	0xbf597c7d	-0.8495558
179	0x3e2eb717	0.1706203
180	0x3ea061f3	0.3132473
181	0xbe5c0cce	-0.2148926
182	0x3eef1281	0.46693805
183	0x3f1269bd	0.57192594
184	0x3ea1b071	0.31579927
185	0xbec6367c	-0.38713443
186	0xbf0015a4	-0.5003302
187	0xbf32d4dc	-0.6985605
188	0xbe92805c	-0.28613555
189	0x3e4e1714	0.20125991
190	0x3ecba027	0.39770624
191	0x3e53ffee	0.20703098
192	0xbee8abb6	-0.45443505
193	0xbe955e17	-0.29173347
194	0x3e5385d7	0.20656525
195	0x3f0d1869	0.5511537
196	0x3ccfe4e4	0.025377698
197	0x3de6aae2	0.11263062
198	0x3ef9787b	0.48724732
199	0x3eb94b30	0.36190176
200	0xbec299cf	-0.38007972
201	0x3ee1541d	0.44009486
202	0x3f01f1a2	0.5075933
203	0x3ec1a2db	0.3781956
204	0xbdf9ee95	-0.12203709
205	0xbe91000d	-0.2832035
206	0xbea7e3cf	-0.32790992
207	0x3ee55197	0.4478881
208	0x3e37ac66	0.17936859
209	0x3df7778e	0.1208335
210	0xbf492079	-0.78565174
211	0x3dfe13b3	0.12406101
212	0x3e947b1a	0.2900017
213	0x3eeedda1	0.46653464
214	0x3e81fe8d	0.2538952
215	0x3f119d88	0.56881
216	0x3e0ad4c3	0.13557725
217	0x3e4f6e55	0.20256932
218	0x3f6b6680	0.9195328
219	0x3f0d9cbe	0.55317295
220	0x3db4ff24	0.08837727
221	0xbd233e1d	-0.039854158
222	0xbf2d27d7	-0.67638916
223	0xbf3917d4	-0.72301984
224	0x3edb654c	0.4285072
225	0xbdc1c3a7	-0.09461146
226	0x3edbe607	0.42948934
227	0x3f1e4e0f	0.6183786
228	0xbe57451e	-0.2102246
229	0x3eb8931b	0.36049733
230	0xbf431d54	-0.76216626
231	0xbf23596f	-0.6380834
232	0x3d5ca175	0.053864915
233	0xbee24345	-0.44191948
234	0xbe074c67	-0.13212739
235	0xbf1aa24b	-0.6040389
236	0x3d9e324c	0.07724437
237	0xbed534c3	-0.41641816
238	0xbd8c4a77	-0.068501405
239	0xbeaecaea	-0.34139186
240	0x3d23c9ed	0.039987493
241	0xbdf60954	-0.12013498
242	0x3d2408ec	0.04004757
243	0xbdda86c5	-0.106702365
244	0x3ec858f1	0.39130357
245	0x3d93a9bd	0.072101094
246	0xbed21726	-0.41033286
247	0xbf1a5dcc	-0.6029937
248	0x3d58ab08	0.052897483
249	0xbe49d422	-0.19709828
250	0xbf0f31f9	-0.5593563
251	0xbeb490ad	-0.3526663
252	0x3da2d57c	0.07950875
253	0xbedffd82	-0.437481
254	0x3da74c95	0.08168904
255	0x3deb4529	0.11487801

bias f4 [128]
0	0x3d56bed7	0.052428093
1	0xbe861038	-0.2618425
2	0x3eccf6b2	0.40031964
3	0xbd39ea35	-0.045389373
4	0x3e14ae96	0.14519724
5	0x3ed081d3	0.40724048
6	0xbdf5b4a5	-0.11997346
7	0x3ee3f24e	0.445208
8	0x3eabaa34	0.33528292
9	0xbe6ead11	-0.23308207
10	0x3f0367ea	0.51330435
11	0xbf043886	-0.5164875
12	0x3e2578e5	0.16159399
13	0xbe682114	-0.22668868
14	0x3e0e3725	0.13888223
15	0x3e79a343	0.24378686
16	0xbe1b29a4	-0.15152603
17	0xbda62e29	-0.08114273
18	0x3e03b27f	0.1286106
19	0x3eaf0770	0.34185362
20	0x3e4c9318	0.19977987
21	0x3e316d14	0.17326766
22	0x3ded8f8d	0.11599646
23	0x3ec1ec56	0.37875623
24	0x3e029aa9	0.1275431
25	0xbcd7950c	-0.026316188
26	0xbe49b0b0	-0.19696307
27	0x3e164ca1	0.14677669
28	0xbebff3ec	-0.37490785
29	0xbed57a64	-0.4169494
30	0x3d1bb71c	0.038016424
31	0xbe5a192a	-0.21298662
32	0x3ee6ff09	0.4511645
33	0xbeaa8140	-0.33301735
34	0xbe77564c	-0.24154013
35	0x3ded321f	0.115818255
36	0x3e7fa109	0.24963774
37	0x3e39c35f	0.18140934
38	0xbe0c9eb9	-0.13732423
39	0x3ed702ba	0.41994268
40	0xbebd23bc	-0.36941326
41	0x3e12f082	0.14349559
42	0x3eab6013	0.33471736
43	0x3e47e1e7	0.19519769
44	0x3ed221b0	0.41041327
45	0x3e3ad5c9	0.18245615
46	0x3eaf7ae5	0.3427345
47	0x3e6cc68b	0.23122613
48	0xbec3e2c5	-0.3825895
49	0x3ecbc0a0	0.397954
50	0xbecf7c0f	-0.40524337
51	0x3bd98b79	0.006638941
52	0x3e79dc70	0.24400496
53	0x3eafc2c4	0.34328282
54	0x3e978a56	0.2959773
55	0x3ea638af	0.3246512
56	0x3e672610	0.22573113
57	0x3ea16475	0.31521955
58	0x3ebd136f	0.3692889
59	0xbef46058	-0.47729754
60	0xbe26cc15	-0.16288789
61	0x3ea7c6ba	0.32768804
62	0x3e1c62f5	0.15272124
63	0xbe76201d	-0.24035688
64	0x3d849ed6	0.06475608
65	0x3e6558aa	0.22397104
66	0xbef700a6	-0.48242682
67	0xbebda710	-0.3704152
68	0x3d53020a	0.051515616
69	0x3eb444bd	0.35208693
70	0xbe4461ed	-0.1917798
71	0xbdeaf5ca	-0.11472662
72	0x3e4cfc17	0.2001804
73	0xbe86cb2c	-0.26326883
74	0x3deaa527	0.114572816
75	0x3eae7ddb	0.34080395
76	0xbe893d4a	-0.26804572
77	0xbed5cb9b	-0.417569
78	0x3e568049	0.20947374
79	0xbebe55da	-0.37174875
80	0x3e87f729	0.26555756
81	0x3e768f6e	0.24078152
82	0xbe39d32e	-0.18146965
83	0xbe8b7c6b	-0.2724336
84	0x3e419435	0.18904193
85	0xbeca1240	-0.3946705
86	0xbe6b0c72	-0.22953966
87	0xbe9547dd	-0.2915639
88	0x3eb0037f	0.34377667
89	0x3e37713b	0.17914288
90	0xbec89333	-0.39174804
91	0xbede0252	-0.43361145
92	0x3e68b5ec	0.22725648
93	0xbeb36b9f	-0.35043046
94	0xbeb36a49	-0.35042027
95	0x3eaa3975	0.3324696
96	0xbe918b8e	-0.28426784
97	0xbdde8cd3	-0.10866704
98	0xbd6435cc	-0.055715367
99	0x3d21609d	0.03939878
100	0xbecefdfb	-0.40428147
101	0x3e306ef9	0.17229833
102	0xbe73419d	-0.23755498
103	0x3e633642	0.22188666
104	0xbe804a60	-0.25056744
105	0x3d7003bc	0.05859731
106	0x3e73135a	0.23737851
107	0xbd0e12e0	-0.03468597
108	0xbe9a8c16	-0.30185002
109	0xbe1ee097	-0.15515362
110	0x3de37fee	0.11108385
111	0xbda74a69	-0.081684895
112	0x3df41f56	0.11920039
113	0xbeede37f	-0.46462628
114	0x3e57ed4e	0.21086618
115	0x3e4eae29	0.20183624
116	0x3e561047	0.20904647
117	0xbebe33bd	-0.37148848
118	0x3d735923	0.05941118
119	0x3e14c541	0.14528371
120	0x3ea18c51	0.31552365
121	0x3de17aed	0.11009774
122	0x3d990fe0	0.07473731
123	0xbe665093	-0.22491674
124	0x3e1f01b8	0.15528
125	0xbddc6bae	-0.10762726
126	0x3ea88256	0.32911938
127	0x3e4d3f39	0.20043649

weight f4 [2, 128]
0	0xbe0968af	-0.1341884
1	0xbd30fb1e	-0.043208234
2	0xbe550e36	-0.20806202
3	0xbd74fa91	-0.05980927
4	0x3cecaa11	0.028889688
5	0xbe397d30	-0.18114161
6	0xbd29b9d8	-0.041437
7	0xbdae20e2	-0.08502366
8	0xbe0baacb	-0.13639371
9	0xbdd074e4	-0.10178545
10	0xbdc9b79e	-0.09849475
11	0xbd46b441	-0.048511747
12	0x3d9ee370	0.07758224
13	0x3d6db2a4	0.058031693
14	0x3e5487c8	0.20754921
15	0x3cc1a4f6	0.02363823
16	0xbbd4309d	-0.0064755217
17	0x3e44289d	0.19156118
18	0x3ce316a4	0.027720757
19	0x3d05f5df	0.032705184
20	0x3dae7c73	0.085198306
21	0xb9802a24	-0.0002444546
22	0x3e40b1d9	0.18817843
23	0x3e25f276	0.16205773
24	0xbe6a6335	-0.22889407
25	0x3e079c91	0.13243319
26	0x3cdb72cc	0.026788138
27	0xbe41e465	-0.18934782
28	0xbd3a571a	-0.045493223
29	0x3c3fd0f0	0.011707529
30	0x3e4bed9f	0.19914864
31	0x3b69cefb	0.0035676348
32	0xbd251dbf	-0.04031157
33	0x3d067037	0.03282186
34	0x3ccaf474	0.024774767
35	0xbd6f5868	-0.05843392
36	0x3e0237a8	0.12716544
37	0x3e577ca2	0.21043637
38	0x3d996cb1	0.07491434
39	0x3d175152	0.036942787
40	0x3b25a965	0.002527797
41	0xbe3477ee	-0.17623875
42	0x3d901fb0	0.07037294
43	0x3e59e372	0.2127817
44	0x3d6e4c4e	0.05817824
45	0xbe47d0f7	-0.19513308
46	0x3e3c1417	0.18367039
47	0xbd07b5ae	-0.033132248
48	0xbd033de4	-0.032041445
49	0xbdda0f5b	-0.1064746
50	0xbc87af28	-0.016563013
51	0xbd21a9f7	-0.03946873
52	0x3d635276	0.055498563
53	0xbdac535e	-0.084143385
54	0xbe67dd22	-0.22642949
55	0x3e39ff58	0.18163812
56	0xbe19cd89	-0.15019812
57	0x3e212172	0.15735415
58	0x3dc69268	0.096958935
59	0xbd46b1eb	-0.04850952
60	0xbdc5f2fc	-0.09665486
61	0x3dd56acd	0.10420761
62	0x3de226dd	0.11042569
63	0xbd9ff8af	-0.078111045
64	0xbcff4cbd	-0.031164521
65	0x3dd754b1	0.105142005
66	0xbd839aeb	-0.06426033
67	0x3cf3d028	0.029762343
68	0x3d3167a7	0.04331174
69	0xbe425fa4	-0.18981797
70	0xbbf6bb64	-0.007529663
71	0x3c105102	0.008808376
72	0x3e5a93d3	0.21345453
73	0x3bffef8a	0.0078105377
74	0xbcb02dca	-0.021506209
75	0x3d69b60e	0.057058387
76	0x3d7c55a8	0.061605126
77	0x3ccd599e	0.025067147
78	0xbd30a207	-0.04312327
79	0x3dc94586	0.09827714
80	0xbe4bb007	-0.19891368
81	0xbd0683bf	-0.032840487
82	0x3d51653d	0.05112194
83	0x3c8b7bd5	0.017026821
84	0xbe530dec	-0.2061078
85	0x3d86c7c5	0.06581072
86	0x3d6f567e	0.058432095
87	0x3de7e864	0.11323622
88	0xbca6a386	-0.020341646
89	0x3df29f84	0.118468314
90	0x3c9a281e	0.018817957
91	0xbbba3ddc	-0.0056836437
92	0x3d26a3fe	0.04068374
93	0xbc8962b8	-0.016770706
94	0x3d9ed86d	0.07756124
95	0x3de3137f	0.11087703
96	0x3d280584	0.041020885
97	0xbd0d11c5	-0.034440774
98	0x3d19a224	0.037508145
99	0x3dec1c24	0.11528805
100	0x3d9b4b63	0.07582738
101	0xbe0517a7	-0.12997304
102	0x3d6553e6	0.055988215
103	0x3e0cc6fb	0.1374778
104	0x3d80fc4f	0.06298124
105	0xbdd3b509	-0.10337264
106	0x3e354e76	0.17705712
107	0xbad36ca8	-0.0016130405
108	0x3c462c1a	0.012095476
109	0xbd295d8c	-0.04134898
110	0x3e27d29b	0.16388933
111	0x3d676121	0.056489114
112	0xbe10b2f9	-0.14130773
113	0x3c7a711a	0.015285755
114	0xbe3393ec	-0.17536896
115	0xbe44cd88	-0.19219029
116	0x3e60be8c	0.21947688
117	0x3c8ba59a	0.017046738
118	0x3d82dffb	0.06390377
119	0xbdc0d67c	-0.0941591
120	0xbde63587	-0.11240678
121	0x3db9f12b	0.09079202
122	0x3dc3cced	0.09560571
123	0xbd52cd40	-0.051465273
124	0xbe3aa2b3	-0.18226127
125	0xbc6ab07b	-0.014324303
126	0x3e41f8a9	0.18942513
127	0xbd65ae75	-0.05607458
128	0x3e7185a6	0.23586139
129	0x3da6703d	0.081268765
130	0x3e36d5d5	0.17855008
131	0x3bb55fa7	0.0055350843
132	0xbc82199f	-0.015881358
133	0x3e379123	0.17926459
134	0xbc824dc8	-0.01590623
135	0x3e17f63c	0.14840025
136	0x3da4475a	0.08021422
137	0xbcf4a169	-0.029862123
138	0x3d65bff1	0.056091253
139	0xbd047b5a	-0.0323442
140	0xbdc8993b	-0.097948514
141	0xbbd4a16f	-0.006488971
142	0xbdcad4b3	-0.099038504
143	0xbda171dd	-0.07883046
144	0x3d2ca221	0.042146806
145	0xbd146a78	-0.03623435
146	0xbdb20723	-0.086927675
147	0x3da1ad1d	0.07894347
148	0xbe6d21b2	-0.23157385
149	0xbdb1f3d6	-0.08689086
150	0xbe34fab7	-0.17673765
151	0xbdfc8893	-0.12330737
152	0x3e7ece1b	0.2488331
153	0xbe11bf0a	-0.14233032
154	0xbdc5b88e	-0.09654342
155	0x3e3541e3	0.17700915
156	0xbd19f5fd	-0.03758811
157	0xbd9924dc	-0.074777335
158	0xbe3f0067	-0.18652497
159	0x3d3e1185	0.046403427
160	0x3d0754a3	0.0330397
161	0xbd631fbd	-0.05545019
162	0xbd84eb22	-0.064901605
163	0x3ded1c85	0.11577705
164	0xbe00dcfb	-0.12584297
165	0xbdf51d16	-0.11968438
166	0xbdf2131e	-0.118200526
167	0xbddc6745	-0.107618846
168	0xbdf8bdaa	-0.121455505
169	0x3e70b141	0.23505117
170	0xbd07207e	-0.03298997
171	0xbe25cc03	-0.16191106
172	0xbce62f81	-0.028098824
173	0x3dfcb99e	0.12340091
174	0xbd7d4474	-0.06183286
175	0x3d1d86d8	0.038458675
176	0x3d5cf5ee	0.053945474
177	0x3dd8fdfd	0.105953194
178	0x3dd29935	0.10283128
179	0xbd0709d2	-0.03296835
180	0x3af074d3	0.0018345363
181	0x3ce88f5a	0.028388668
182	0x3e2d6d4e	0.16936228
183	0xbe40fd9f	-0.18846749
184	0x3e1c7e3a	0.15282527
185	0xbdc51248	-0.096226275
186	0xbc057736	-0.008146098
187	0x3c452be9	0.012034395
188	0x3d3d7f7f	0.046264168
189	0xbd19b508	-0.03752616
190	0xbddbd1ab	-0.1073335
191	0xbcd3740f	-0.025812177
192	0x3dd16e79	0.10226149
193	0xbd917e62	-0.07104184
194	0xbd4f9ef7	-0.05068871
195	0xbd8268d1	-0.063676484
196	0xbe594d1a	-0.21220818
197	0x3e49e68f	0.19716857
198	0xbc33baa2	-0.01096979
199	0x3d12af89	0.035811935
200	0xbe64b6dc	-0.2233538
201	0xba89ea63	-0.0010522123
202	0x3da80ff9	0.082061715
203	0xbe0c413b	-0.13696758
204	0xbda31d58	-0.07964581
205	0xbc7e2748	-0.015512295
206	0x3d08c4f6	0.03339096
207	0x3ba0db2b	0.0049089394
208	0x3e1d7bff	0.15379332
209	0xbdcc7dbe	-0.09984921
210	0xbddcaf9c	-0.10775682
211	0xbd9b7a7f	-0.07591724
212	0x3e2dd1a7	0.16974507
213	0xbd2e420d	-0.04254346
214	0x3d30b25f	0.043138858
215	0xbd9fbd5f	-0.077997915
216	0x3e0519b0	0.1299808
217	0xbdb6057b	-0.08887764
218	0x3c6aaf7d	0.014324066
219	0xbd3bd551	-0.04585773
220	0xbdc6473d	-0.096815564
221	0x3dc4d91a	0.09611721
222	0xbc8c3f79	-0.01712011
223	0xbd5523a5	-0.052035946
224	0x3d0a2994	0.03373106
225	0x3d3586d3	0.04431803
226	0x3c1485ec	0.009065133
227	0xbe5a7e92	-0.21337345
228	0xbdd2363a	-0.10264249
229	0x3db04174	0.08606234
230	0x3d3e79b3	0.04650278
231	0xbe322044	-0.17395121
232	0xbde34aed	-0.11098275
233	0x3e3a5835	0.18197711
234	0xbd02dcd3	-0.031948876
235	0x3df3c40d	0.11902628
236	0xbd06f91a	-0.032952406
237	0x3b8cd1c1	0.0042974656
238	0xbe3a5df4	-0.18199903
239	0xbe2391eb	-0.15973632
240	0x3e8c2fd7	0.2738025
241	0xbd88a68e	-0.06672393
242	0x3d831a49	0.06401498
243	0x3dbdca52	0.09267105
244	0xbe133144	-0.14374262
245	0x3d8cfef7	0.06884568
246	0xbdbce4fb	-0.09223362
247	0x3e58ea31	0.21183087
248	0x3e51c89d	0.20486684
249	0xbdf3af18	-0.11898631
250	0x3cdef147	0.02721466
251	0x3d92d67c	0.07169816
252	0x3e466949	0.193761
253	0x3d3a7015	0.045517046
254	0xbe19aafd	-0.15006633
255	0xbd8ed709	-0.069746085

bias f4 [2]
0	0x3d83127d	0.06400011
1	0x3cb4a9e8	0.022053674
